log/log_dir/eval_eps/austria-b07fde-206.npz (npz, 791735 bytes, 9 tensors)

pose f4 [206, 6]
0.7176405 0.104001574 0.05978738 0.022408932 0.01867558 -0.0097727785 0.7080167 0.08939024
0.04836834 -0.0085165305 0.0023454302 -0.01791698 0.7262008 0.09734754 0.052734826 0.012045641
0.0055738217 -0.017929101 0.70002306 0.08898757 0.060090896 0.0014999829 0.0018324925 -0.00959632
0.70928246 0.082301624 0.05285402 0.009683314 -0.00063342653 -0.05201728 0.7478841 0.09557834
0.056176763 -0.007306008 0.005345261 -0.056697093 0.76560223 0.07242607 0.05019507 0.011651709
-0.0053374143 -0.11589048 0.79675806 0.057802375 0.074113704 -0.0063842195 -0.002751203 -0.14760724
0.8010767 0.029243104 0.042663313 0.012592147 0.008015079 -0.21248682 0.82628757 0.029011909
0.055205975 0.008305016 -0.024122847 -0.2655104 0.8723844 0.029664032 0.03941816 -0.007025
-0.0071822577 -0.29640076 0.9112407 -0.015785608 0.05581709 -0.005286459 -0.0067782677 -0.37226877
0.94611615 -0.042282242 0.050729044 0.0002690388 -0.0031299228 -0.42669758 0.9793505 -0.05670435
0.055689327 0.017296635 0.026386004 -0.4578269 1.023348 -0.11030346 0.05117842 -0.0058511174
-0.012275959 -0.5082934 1.0860279 -0.1370002 0.03552211 0.011193796 0.0028195076 -0.5324868
1.1255009 -0.17330022 0.04049532 0.013441103 -0.0023250533 -0.5756289 1.1760511 -0.21601439
0.05546314 -0.023088273 -0.007750326 -0.5882649 1.2319099 -0.25779077 0.060511943 0.016770199
-0.005185067 -0.6263935 1.2964139 -0.3126806 0.03959112 -0.00017083241 0.0101072285 -0.6308924
1.3504968 -0.33113122 0.048518494 0.0007155698 -0.022755546 -0.6475863 1.4113714 -0.41962
0.047424283 -0.0052169887 -0.007229015 -0.66873395 1.4716338 -0.45356137 0.05430806 0.0080391485
-0.003932151 -0.6691613 1.5651712 -0.51683766 0.05103711 -0.0055606104 -0.0076836753 -0.67710274
1.6163465 -0.57730705 0.055429485 0.0004972763 -0.008020634 -0.7032406 1.7122535 -0.63413733
0.036834292 0.0087688165 -0.013110673 -0.69624764 1.7509258 -0.6862765 0.047157135 -0.0043537766
-0.007909845 -0.6956108 1.838704 -0.76088715 0.059827905 0.023096023 -0.010211279 -0.6988624
1.907891 -0.82195246 0.055147313 0.012126201 0.005995575 -0.69902176 2.0054095 -0.8895781
0.06636965 0.011591626 -0.014997493 -0.6856807 2.062515 -0.97606146 0.05360266 -0.024375651
-0.003783301 -0.6710493 0.49459293 0.0915893 0.046814352 -0.0034389836 -0.020251552 0.001584591
0.50546575 0.089523554 0.049836304 0.018563533 0.0028163185 -0.0067789215 0.5087115 0.10653123
0.060848594 -0.013539477 -0.0005942834 0.014895933 0.5267345 0.11525991 0.04835132 -0.0010903607
0.025652403 0.020276485 0.54850787 0.098773755 0.05963069 -0.010155919 -0.013291263 0.008856675
0.58251685 0.08961301 0.05428356 0.0003095753 0.008102924 -0.0086419135 0.60255045 0.085905485
0.04517312 -0.010214091 0.0033277294 0.0020648465 0.6424085 0.09111025 0.04910864 0.0035283256
-0.012689757 -0.020491278 0.6786745 0.07008748 0.04366339 -0.0007727582 -0.007833974 -0.04210917
0.71040565 0.08204677 0.04335776 -0.0034881756 0.012925464 -0.05128166 0.7794566 0.07177245
0.035503488 -0.011264058 0.01012326 -0.06447729 0.8246735 0.06384731 0.048026804 0.014682311
00000000: 4ab7 373f c7fe d43d 9de3 743d f092 b73c
00000010: 88fd 983c 011e 20bc 9540 353f 3b12 b73d
00000020: e11d 463d eb88 0bbc cab5 193b a1c6 92bc
00000030: 4ce8 393f 265e c73d 7900 583d 155b 453c
00000040: 9ba4 b63b 0de0 92bc b634 333f 1d3f b63d
00000050: df21 763d 139b c43a 3f30 f03a e239 1dbc
00000060: 8993 353f c18d a83d 757d 583d c3a6 1e3c
00000070: 890c 26ba 1210 55bd 5575 3f3f 94be c33d
00000080: 9b19 663d 3d67 efbb 4d27 af3b 363b 68bd
00000090: 82fe 433f 1f54 943d 5999 4d3d cfe6 3e3c
000000a0: 7ae5 aebb fd57 edbd 56f8 4b3f 2fc2 6c3d
000000b0: edc8 973d b732 d1bb 874d 34bb 5a26 17be
000000c0: 5d13 4d3f 3c8f ef3c babf 2e3d 4b4f 4e3c
000000d0: ae51 033c 2596 59be 9587 533f 62aa ed3c
000000e0: a91f 623d c311 083c 479d c5bc fbf0 87be
000000f0: 9654 5f3f fc01 f33c f074 213d f931 e6bb
00000100: 2559 ebbb d7c1 97be 1247 693f d250 81bc
00000110: 76a0 643d 083a adbb 3b1c debb 039a bebe
00000120: ab34 723f 2530 2dbd 42c9 4f3d c70d 8d39
00000130: 641f 4dbb 1b78 dabe b7b6 7a3f d242 68bd
00000140: 7e1a 643d acb1 8d3c 7627 d83c 4a68 eabe
00000150: 11fd 823f c8e6 e1bd 77a0 513d bbba bfbb
00000160: 1b21 49bc 841f 02bf f602 8b3f c849 0cbe
00000170: a27f 113d 2f66 373c 7dc7 383b 0e51 08bf
00000180: 6a10 903f 9d75 31be 6cde 253d 1238 5c3c
00000190: ec5f 18bb 6a5c 13bf d888 963f e032 5dbe
000001a0: 512d 633d 9e23 bdbc 72f6 fdbb 8798 16bf
000001b0: 39af 9d3f 27fd 83be 5fdb 773d a861 893c
000001c0: 7fe7 a9bb 535b 20bf e4f0 a53f ac17 a0be
000001d0: 4c2a 223d 7a21 33b9 ca98 253c 2a82 21bf
000001e0: 14dd ac3f 088a a9be 54bb 463d 1495 3b3a
000001f0: d769 babc 37c8 25bf d1a7 b43f 6fd8 d6be
00000200: f73f 423d 46f3 aabb 60e1 ecbb 2632 2bbf
00000210: 7f5e bc3f 3239 e8be 2172 5e3d a2b6 033c
00000220: 46d9 80bb 284e 2bbf 8857 c83f 794f 04bf
00000230: 4a0c 513d c835 b6bb 57c7 fbbb 9b56 2dbf
00000240: 71e4 ce3f 65ca 13bf 070a 633d a65b 023a
00000250: fa68 03bc 9307 34bf 1f2b db3f d356 22bf
00000260: 8edf 163d 15ab 0f3c 26ce 56bc 493d 32bf
00000270: 561e e03f d1af 2fbf d727 413d 20aa 8ebb
00000280: 4b98 01bc 8d13 32bf a75a eb3f 80c9 42bf
00000290: 1b0e 753d df33 bd3c 354d 27bc a5e8 32bf
000002a0: c635 f43f 7a6b 52bf 26e2 613d f9ac 463c
000002b0: 8776 c43b 17f3 32bf a158 0040 64bb 63bf
000002c0: d0ec 873d ceea 3d3c 0bb8 75bc c588 2fbf
000002d0: 3f00 0440 2adf 79bf 768e 5b3d 72af c7bc
000002e0: 42f1 77bb e3c9 2bbf 493b fd3e 2c93 bb3d
000002f0: 68c0 3f3d 9260 61bb 95e6 a5bc 0db2 cf3a
00000300: 3466 013f 2058 b73d 2721 4c3d 8d12 983c
00000310: fc91 383b b721 debb eb3a 023f 0c2d da3d
00000320: 603c 793d afd4 5dbc afc9 1bba 120e 743c
00000330: 12d8 063f 630d ec3d 090c 463d 6fea 8eba
00000340: fd24 d23c df1a a63c 036b 0c3f e549 ca3d
00000350: 4f3f 743d 0365 26bc 99c3 59bc 961b 113c
00000360: d31f 153f 0787 b73d 7058 5e3d 7e4e a239
00000370: 20c2 043c d096 0dbc bf40 1a3f 37ef af3d
00000380: 7307 393d 0159 27bc 0916 5a3b 6052 073b
00000390: e274 243f 0398 ba3d 2426 493d 7b3b 673b
000003a0: b3e8 4fbc 53dd a7bc 9dbd 2d3f 068a 8f3d
000003b0: 62d8 323d ed92 4aba 125a 00bc aa7a 2cbd
000003c0: 25dd 353f 2308 a83d e897 313d e099 64bb
000003d0: 53c5 533c b80c 52bd 788a 473f 6ffd 923d
000003e0: 1b6c 113d e28c 38bc 08dc 253c ab0c 84bd
000003f0: cd1d 533f 61c2 823d c1b7 443d 138e 703c

velocity f4 [206, 6]
0.009500884 -0.0015135721 -0.0010321885 0.004105985 0.0014404358 0.014542735 0.06818112 -0.009188498
-0.03578279 0.006603283 0.17570734 -0.005168195 0.17774262 -0.019229412 0.03307 -0.28680238
-0.028076448 -0.18831398 0.23625231 -0.065358765 0.0035293098 0.064586215 0.15014556 -0.30892092
0.32164028 -0.13124755 0.009600449 -0.061975617 -0.054759037 -0.64540905 0.4286269 -0.17490812
0.04988543 -0.51845235 -0.16603135 -1.0053825 0.5149345 -0.2040447 -0.08739077 0.5197434
0.27914113 -0.93811923 0.62827617 -0.23051435 0.015421548 0.844646 -0.35768458 -1.4292357
0.704151 -0.22470424 -0.10927446 -0.06569106 0.07589529 -1.3224733 0.82288754 -0.2691884
0.03590938 0.30417845 0.38629633 -1.3000649 0.98644364 -0.26950267 0.040923014 0.80558014
-0.2893632 -1.4690577 1.0627837 -0.2547743 -0.017179443 0.39632133 0.5577554 -1.3189381
1.198574 -0.26011214 -0.021568725 0.57707095 0.45997322 -1.1973162 1.3872817 -0.20303655
0.108391054 0.74775535 -0.34399542 -0.82219034 1.4233857 -0.16330041 -0.029510364 0.31280318
-0.104773544 -0.79554623 1.4682776 -0.12108129 -0.010011825 0.30807948 0.09048745 -0.9706447
1.5579027 -0.14395376 -0.029968493 1.0402651 -0.031404324 -0.77390426 1.7224615 -0.050009906
0.14739573 -1.2341175 -0.8226436 -0.64352334 1.7666975 -0.05427734 -0.083801724 -0.058728725
0.70437133 -0.36970928 1.9434838 -0.054571643 0.12635884 0.011369213 -0.38307348 -0.3427475
1.9418623 -0.07446583 -0.027063217 0.8370389 0.7606461 -0.13357638 2.0282094 -0.038991332
0.0034332077 -0.31707478 0.31154692 -0.31556427 2.208969 -0.05020941 -0.02867762 0.00020830813
-0.08295976 -0.20181565 2.231611 -0.03728343 -0.044791803 0.44055742 0.54240835 -0.21178359
2.3247533 -0.07569922 0.05977657 -0.6495789 -0.94798636 -0.16874462 2.3360102 -0.06784716
-0.052629977 -2.1100743 -0.090355076 -0.016338293 2.439628 -0.020565432 -0.07400257 -0.3231762
-0.30027223 -0.25927994 2.5065668 -0.015542828 0.09992113 0.15808547 0.27703714 0.027949054
2.5697863 -0.009571868 -0.03535854 0.80190194 0.506761 0.19443117 2.6443896 0.022814585
-0.016996352 0.13303968 -0.20326488 0.18913066 2.7574432 0.014562987 -0.10899698 -1.9616559
-0.6911952 0.56818986 -0.0046538366 0.0049026534 0.011586869 -0.006380576 -0.003382273 0.0017185176
0.2266909 0.029036902 0.08068106 0.24353625 -0.25653 0.3349831 0.30473578 0.011579163
-0.0071611623 0.30351102 -0.010787511 0.14556174 0.41077188 -0.005478176 -0.041112695 -0.5009963
0.17709054 -0.009712819 0.55086446 -0.046865158 0.024961121 -0.10711717 0.0022925404 -0.33064649
0.67336375 -0.10504469 0.025858453 0.30434054 0.31478706 -0.38283587 0.74026024 -0.10502067
-0.078697436 0.6397696 0.18658213 -0.31935644 0.96190953 -0.081616424 0.10764471 -0.36612958
-0.6345719 -0.4055344 0.9749711 -0.09135684 -0.062545136 0.21355969 0.44686857 -0.38448256
1.072997 -0.12490837 -0.067205966 -0.70978564 -0.22788936 -0.2837728 1.1644293 -0.08860672
-0.030372124 -0.3914737 -0.10215448 -0.47169194 1.2538611 -0.08975201 -0.09263632 1.7637826
00000000: 99a9 1b3c 0d63 c6ba 804a 87ba 808b 863b
00000010: 01cd bc3a a744 6e3c 8ba2 8b3d 5b8b 16bc
00000020: fa90 12bd 5a60 d83b a0ec 333e f659 a9bb
00000030: 2902 363e 0087 9dbc 6974 073d c3d7 92be
00000040: 9400 e6bc 61d5 40be 20ec 713e d1da 85bd
00000050: fe4b 673b c745 843d c2bf 193e e22a 9ebe
00000060: 09ae a43e c265 06be 344b 1d3c 25da 7dbd
00000070: 034b 60bd 8739 25bf fc74 db3e 1d1b 33be
00000080: aa54 4c3d 4bb9 04bf 1f04 2abe 60b0 80bf
00000090: bfd2 033f 18f1 50be eff9 b2bd e70d 053f
000000a0: 96eb 8e3e 9528 70bf b5d6 203f f40b 6cbe
000000b0: a9aa 7c3c b83a 583f 6f22 b7be 32f1 b6bf
000000c0: 3d43 343f de18 66be 4acb dfbd 0989 86bd
000000d0: fd6e 9b3d ce46 a9bf c2a8 523f 10d3 89be
000000e0: b715 133d 47bd 9b3e a2c8 c53e 8768 a6bf
000000f0: 9287 7c3f 41fc 89be e49e 273d 803a 4e3f
00000100: 6a27 94be 150a bcbf 4c09 883f c771 82be
00000110: e7bb 8cbc a1ea ca3e 0fc9 0e3f f7d2 a8bf
00000120: df6a 993f 6b2d 85be e5b0 b0bc ecba 133f
00000130: 9c81 eb3e a841 99bf 7292 b13f d0e8 4fbe
00000140: 21fc dd3d e56c 3f3f 2b20 b0be 117b 52bf
00000150: 8131 b63f 3938 27be b8bf f1bc bd27 a03e
00000160: 8393 d6bd eba8 4bbf 85f0 bb3f 78f9 f7bd
00000170: a308 24bc 98bc 9d3e 7c51 b93d 2c7c 78bf
00000180: 5b69 c73f 9d68 13be 7c80 f5bc 6827 853f
00000190: d2a1 00bd 971e 46bf 9e79 dc3f 30d7 4cbd
000001a0: e8ee 163e 90f7 9dbf c598 52bf f2bd 24bf
000001b0: 2523 e23f eb51 5ebd 3da0 abbd 888d 70bd
000001c0: ae51 343f 894a bdbe 14c4 f83f 8486 5fbd
000001d0: 3664 013e f045 3a3c 3522 c4be 9a7c afbe
000001e0: f28e f83f 8b81 98bd aeb3 ddbc 2e48 563f
000001f0: b4b9 423f 3fc8 08be 2fce 0140 60b5 1fbd
00000200: abff 603b a057 a2be 1483 9f3e a491 a1be
00000210: c05f 0d40 62a8 4dbd 54ed eabc 4a6d 5a39
00000220: cfe6 a9bd c3a8 4ebe b7d2 0e40 83b6 18bd
00000230: 9c77 37bd be90 e13e 46db 0a3f ccdd 58be
00000240: c2c8 1440 3108 9bbd 47d8 743d ce4a 26bf
00000250: 3caf 72bf 64cb 2cbe 3181 1540 74f3 8abd
00000260: 8892 57bd 750b 07c0 150c b9bd e2d7 85bc
00000270: dd22 1c40 d678 a8bc a98e 97bd 5a77 a5be
00000280: 48bd 99be 57c0 84be 976b 2040 58a7 7ebc
00000290: 73a3 cc3d 28e1 213e d0d7 8d3e 6af5 e43c
000002a0: 6177 2440 53d3 1cbc 1ed4 10bd 7249 4d3f
000002b0: 17bb 013f f718 473e ae3d 2940 a7e5 ba3c
000002c0: ef3b 8bbc 8e3b 083e ab24 50be 78ab 413e
000002d0: f379 3040 9899 6e3c cf39 dfbd 8a17 fbbf
000002e0: 2bf2 30bf e474 113f 367f 98bb 70a6 a03b
000002f0: dad6 3d3c 2714 d1bb 20a9 5dbb e23f e13a
00000300: a921 683e ccde ed3c 1d3c a53d 9161 793e
00000310: e657 83be e882 ab3e 5406 9c3e 88b6 3d3c
00000320: 2fa8 eabb cc65 9b3e 1abe 30bc 230e 153e
00000330: b150 d23e 4582 b3bb c965 28bd 4b41 00bf
00000340: 3957 353e 8422 1fbc 7405 0d3f aef5 3fbd
00000350: 447b cc3c 3f60 dbbd 723e 163b 7f4a a9be
00000360: 9161 2c3f ac21 d7bd 1bd5 d33c 86d2 9b3e
00000370: c52b a13e 1003 c4be b281 3d3f 1415 d7bd
00000380: 1f2c a1bd f1c7 233f 630f 3f3e b082 a3be
00000390: b43f 763f 8326 a7bd d474 dc3d 5675 bbbe
000003a0: 4e73 22bf 34a2 cfbe b597 793f 4c19 bbbd
000003b0: aa17 80bd 64af 5a3e f5cb e43e e6da c4be
000003c0: f757 893f f6cf ffbd 48a3 89bd 83b4 35bf
000003d0: d45b 69be ab4a 91be 050c 953f 7177 b5bd
000003e0: f6ce f8bc 3e6f c8be 5e36 d1bd 9b81 f1be
000003f0: 857e a03f e7cf b7bd 1cb8 bdbd a1c3 e13f

lidar f4 [206, 1080]
0.81881046 0.83377934 0.7897246 0.7881673 0.78262246 0.8195168 0.81454474 0.8166313
0.8195234 0.808685 0.79040205 0.80336684 0.76988506 0.79241854 0.7669668 0.8025359
0.7806711 0.7736613 0.76470464 0.78643656 0.7697437 0.7730276 0.7458088 0.7715292
0.7694247 0.767819 0.78093004 0.7671859 0.750776 0.75257754 0.76266366 0.73219776
0.75788593 0.7564 0.7341284 0.7289094 0.73568565 0.7362893 0.743935 0.7365653
0.7594001 0.7187118 0.7219864 0.7184661 0.73865837 0.71970373 0.72764367 0.71657544
0.7115064 0.7080713 0.73047626 0.70669043 0.70794564 0.7141199 0.73236006 0.6999304
0.73055196 0.6974892 0.73400635 0.7110751 0.7315845 0.7145446 0.7191081 0.6882286
0.69747096 0.6894972 0.69586885 0.687318 0.6946764 0.69768995 0.68194914 0.7073143
0.7010201 0.6874189 0.6972213 0.6783399 0.69748527 0.71123564 0.6849049 0.69846797
0.6753562 0.698669 0.68012834 0.67488235 0.69066507 0.66648966 0.6989391 0.66424054
0.6910655 0.6735421 0.69180083 0.7002888 0.67036223 0.6829696 0.6828648 0.68131727
0.66639 0.6953213 0.67408097 0.6895711 0.6829221 0.66597617 0.68618554 0.6686718
0.6875759 0.67484504 0.6863127 0.6780737 0.6787762 0.6691822 0.6868377 0.67373735
0.6643504 0.6710989 0.64707243 0.657829 0.67161876 0.6563332 0.66889745 0.66085577
0.6486942 0.6546946 0.6650206 0.6653828 0.6642665 0.6669438 0.6664567 0.6572828
0.67526966 0.65392506 0.6562231 0.6738433 0.67006195 0.6656391 0.6414592 0.6733936
0.664946 0.6758006 0.6420297 0.6699727 0.6419059 0.6594012 0.6397822 0.6679208
0.6660299 0.65640116 0.6497798 0.63627046 0.6606323 0.6508308 0.66110206 0.6665142
0.6705541 0.6656499 0.6324399 0.64585495 0.66011924 0.63812363 0.6515928 0.6332048
0.63873184 0.6314998 0.661596 0.6392337 0.64383954 0.666435 0.6575983 0.63127786
0.63635707 0.6540625 0.6522531 0.63895816 0.6660083 0.6534734 0.6503682 0.65243447
0.65785384 0.64154124 0.64487606 0.63752615 0.6365966 0.6661101 0.6581429 0.64845973
0.6382404 0.6393178 0.63170975 0.6464083 0.6416849 0.65671945 0.64437854 0.63673407
0.6307791 0.632525 0.65647453 0.6477842 0.6511275 0.6652879 0.6690718 0.6390434
0.6565916 0.6411447 0.6318293 0.66079384 0.64385176 0.6465105 0.6547039 0.66439044
0.65669954 0.6664452 0.64323115 0.6639861 0.64024955 0.67053825 0.66040283 0.6421657
0.6711305 0.6629209 0.64449173 0.64318544 0.6554592 0.63641095 0.64386886 0.6527349
0.65107936 0.6549404 0.64796364 0.66050667 0.671806 0.64273316 0.6589 0.64406747
0.66758317 0.6553063 0.6624276 0.64771795 0.64662236 0.66067255 0.6558686 0.67955846
0.67308164 0.67290694 0.6795766 0.6474064 0.6665915 0.6683981 0.68399996 0.6577817
0.6562668 0.65118635 0.64837617 0.6855472 0.6757252 0.6809523 0.66132367 0.67418826
00000000: 909d 513f 9072 553f 642b 4a3f 55c5 493f
00000010: f259 483f dacb 513f 0186 503f c00e 513f
00000020: 49cc 513f fb05 4f3f ca57 4a3f 73a9 4d3f
00000030: 3017 453f f1db 4a3f f057 443f fe72 4d3f
00000040: 10da 473f ab0e 463f afc3 433f e853 493f
00000050: ec0d 453f 23e5 453f 53ed 3e3f f082 453f
00000060: 04f9 443f c98f 443f 08eb 473f 4c66 443f
00000070: db32 403f eca8 403f ed3d 433f 5071 3b3f
00000080: d004 423f 6ea3 413f d7ef 3b3f ce99 3a3f
00000090: e555 3c3f 757d 3c3f 8672 3e3f 8b8f 3c3f
000000a0: 0c68 423f 7ffd 373f 1ad4 383f 65ed 373f
000000b0: b718 3d3f 813e 383f db46 3a3f 7d71 373f
000000c0: 4925 363f 2944 353f 7e00 3b3f aae9 343f
000000d0: ed3b 353f 90d0 363f f37b 3b3f a42e 333f
000000e0: 7405 3b3f a78e 323f d7e7 3b3f 0509 363f
000000f0: 1f49 3b3f 65ec 363f 7817 383f c02f 303f
00000100: 758d 323f e382 303f 7624 323f 13f4 2f3f
00000110: 50d6 313f cf9b 323f 3894 2e3f 8d12 353f
00000120: 0e76 333f affa 2f3f 187d 323f afa7 2d3f
00000130: 658e 323f 8a13 363f ed55 2f3f ccce 323f
00000140: 25e4 2c3f f9db 323f e41c 2e3f 17c5 2c3f
00000150: 6dcf 303f 119f 2a3f aced 323f ab0b 2a3f
00000160: abe9 303f 416d 2c3f dc19 313f 2046 333f
00000170: dc9c 2b3f 19d7 2e3f 3ad0 2e3f cf6a 2e3f
00000180: 8998 2a3f 9400 323f 9290 2c3f bb87 303f
00000190: fcd3 2e3f 6a7d 2a3f dba9 2f3f 132e 2b3f
000001a0: f904 303f a5c2 2c3f 30b2 2f3f 3d96 2d3f
000001b0: 47c4 2d3f 864f 2b3f 98d4 2f3f 0d7a 2c3f
000001c0: de12 2a3f 23cd 2b3f 8aa6 253f 7b67 283f
000001d0: 35ef 2b3f 7405 283f dd3c 2b3f d82d 293f
000001e0: d310 263f 119a 273f ca3e 2a3f 8756 2a3f
000001f0: 5f0d 2a3f d4bc 2a3f e89c 2a3f b043 283f
00000200: 79de 2c3f a267 273f 3dfe 273f ff80 2c3f
00000210: 2e89 2b3f 5367 2a3f ac36 243f 8663 2c3f
00000220: e739 2a3f 4501 2d3f 0f5c 243f 5583 2b3f
00000230: f253 243f 84ce 283f c4c8 233f dcfc 2a3f
00000240: ef80 2a3f e809 283f f857 263f 9fe2 223f
00000250: 331f 293f d99c 263f fc3d 293f ada0 2a3f
00000260: 6fa9 2b3f 0868 2a3f 95e7 213f c056 253f
00000270: 93fd 283f 125c 233f c9ce 263f b619 223f
00000280: ee83 233f f9a9 213f 5b5e 293f d2a4 233f
00000290: abd2 243f 7c9b 2a3f 5d58 283f 6d9b 213f
000002a0: 4ce8 223f a470 273f 0ffa 263f c392 233f
000002b0: 857f 2a3f 084a 273f 887e 263f f205 273f
000002c0: 1c69 283f 0c3c 243f 9916 253f ea34 233f
000002d0: fff7 223f 3186 2a3f 0e7c 283f 7501 263f
000002e0: b963 233f 55aa 233f bbb7 213f 047b 253f
000002f0: 7645 243f c41e 283f fef5 243f 0101 233f
00000300: bd7a 213f 29ed 213f b70e 283f 2fd5 253f
00000310: 4bb0 263f 4f50 2a3f 4a48 2b3f 5998 233f
00000320: 6316 283f 0f22 243f 91bf 213f c929 293f
00000330: 78d3 243f b681 253f ad9a 273f 7e15 2a3f
00000340: 761d 283f 279c 2a3f ccaa 243f fefa 293f
00000350: 65e7 233f 65a8 2b3f 2910 293f f964 243f
00000360: 35cf 2b3f 2fb5 293f 69fd 243f cda7 243f
00000370: 2dcc 273f d4eb 223f 97d4 243f a219 273f
00000380: 23ad 263f 2daa 273f f2e0 253f f716 293f
00000390: 7afb 2b3f 298a 243f acad 283f 9be1 243f
000003a0: bbe6 2a3f 27c2 273f db94 293f d8d0 253f
000003b0: 0b89 253f d621 293f 01e7 273f 8bf7 2d3f
000003c0: 144f 2c3f a143 2c3f bbf8 2d3f 6dbc 253f
000003d0: bea5 2a3f 231c 2b3f 9f1a 2f3f 6264 283f
000003e0: 1a01 283f 26b4 263f fbfb 253f 0580 2f3f
000003f0: 54fc 2c3f e452 2e3f 824c 293f 9a97 2c3f

time f4 [206]
0.01 0.05 0.09 0.13 0.17 0.21 0.25 0.29
0.33 0.37 0.41 0.45 0.49 0.53 0.57 0.61
0.65 0.69 0.73 0.77 0.81 0.85 0.89 0.93
0.97 1.01 1.05 1.09 1.13 1.17 1.21 0.01
0.05 0.09 0.13 0.17 0.21 0.25 0.29 0.33
0.37 0.41 0.45 0.49 0.53 0.57 0.61 0.65
0.69 0.73 0.77 0.81 0.85 0.89 0.93 0.97
1.01 1.05 1.09 1.13 1.17 1.21 1.25 1.29
1.3 0.01 0.05 0.09 0.13 0.17 0.21 0.25
0.29 0.33 0.37 0.41 0.45 0.49 0.53 0.57
0.61 0.65 0.69 0.73 0.77 0.81 0.85 0.89
0.93 0.97 1.01 1.05 1.09 1.13 1.17 1.21
1.25 1.26 0.01 0.05 0.09 0.13 0.17 0.21
0.25 0.29 0.33 0.37 0.41 0.45 0.49 0.53
0.57 0.61 0.65 0.69 0.73 0.77 0.81 0.85
0.89 0.93 0.97 1.01 1.05 1.09 1.13 1.17
1.21 1.25 1.29 1.33 1.37 1.41 1.45 1.49
1.53 1.57 1.61 1.65 1.69 1.73 1.77 1.81
0.01 0.05 0.09 0.13 0.17 0.21 0.25 0.29
0.33 0.37 0.41 0.45 0.49 0.53 0.57 0.61
0.65 0.69 0.73 0.77 0.81 0.85 0.89 0.93
0.97 1.01 1.05 1.09 1.13 1.17 1.21 0.01
0.05 0.09 0.13 0.17 0.21 0.25 0.29 0.33
0.37 0.41 0.45 0.49 0.53 0.57 0.61 0.65
0.69 0.73 0.77 0.81 0.85 0.89 0.93 0.97
1.01 1.05 1.09 1.13 1.17 1.2
00000000: 0ad7 233c cdcc 4c3d ec51 b83d b81e 053e
00000010: 7b14 2e3e 3d0a 573e 0000 803e e17a 943e
00000020: c3f5 a83e a470 bd3e 85eb d13e 6666 e63e
00000030: 48e1 fa3e 14ae 073f 85eb 113f f628 1c3f
00000040: 6666 263f d7a3 303f 48e1 3a3f b81e 453f
00000050: 295c 4f3f 9a99 593f 0ad7 633f 7b14 6e3f
00000060: ec51 783f ae47 813f 6666 863f 1f85 8b3f
00000070: d7a3 903f 8fc2 953f 48e1 9a3f 0ad7 233c
00000080: cdcc 4c3d ec51 b83d b81e 053e 7b14 2e3e
00000090: 3d0a 573e 0000 803e e17a 943e c3f5 a83e
000000a0: a470 bd3e 85eb d13e 6666 e63e 48e1 fa3e
000000b0: 14ae 073f 85eb 113f f628 1c3f 6666 263f
000000c0: d7a3 303f 48e1 3a3f b81e 453f 295c 4f3f
000000d0: 9a99 593f 0ad7 633f 7b14 6e3f ec51 783f
000000e0: ae47 813f 6666 863f 1f85 8b3f d7a3 903f
000000f0: 8fc2 953f 48e1 9a3f 0000 a03f b81e a53f
00000100: 6666 a63f 0ad7 233c cdcc 4c3d ec51 b83d
00000110: b81e 053e 7b14 2e3e 3d0a 573e 0000 803e
00000120: e17a 943e c3f5 a83e a470 bd3e 85eb d13e
00000130: 6666 e63e 48e1 fa3e 14ae 073f 85eb 113f
00000140: f628 1c3f 6666 263f d7a3 303f 48e1 3a3f
00000150: b81e 453f 295c 4f3f 9a99 593f 0ad7 633f
00000160: 7b14 6e3f ec51 783f ae47 813f 6666 863f
00000170: 1f85 8b3f d7a3 903f 8fc2 953f 48e1 9a3f
00000180: 0000 a03f ae47 a13f 0ad7 233c cdcc 4c3d
00000190: ec51 b83d b81e 053e 7b14 2e3e 3d0a 573e
000001a0: 0000 803e e17a 943e c3f5 a83e a470 bd3e
000001b0: 85eb d13e 6666 e63e 48e1 fa3e 14ae 073f
000001c0: 85eb 113f f628 1c3f 6666 263f d7a3 303f
000001d0: 48e1 3a3f b81e 453f 295c 4f3f 9a99 593f
000001e0: 0ad7 633f 7b14 6e3f ec51 783f ae47 813f
000001f0: 6666 863f 1f85 8b3f d7a3 903f 8fc2 953f
00000200: 48e1 9a3f 0000 a03f b81e a53f 713d aa3f
00000210: 295c af3f e17a b43f 9a99 b93f 52b8 be3f
00000220: 0ad7 c33f c3f5 c83f 7b14 ce3f 3333 d33f
00000230: ec51 d83f a470 dd3f 5c8f e23f 14ae e73f
00000240: 0ad7 233c cdcc 4c3d ec51 b83d b81e 053e
00000250: 7b14 2e3e 3d0a 573e 0000 803e e17a 943e
00000260: c3f5 a83e a470 bd3e 85eb d13e 6666 e63e
00000270: 48e1 fa3e 14ae 073f 85eb 113f f628 1c3f
00000280: 6666 263f d7a3 303f 48e1 3a3f b81e 453f
00000290: 295c 4f3f 9a99 593f 0ad7 633f 7b14 6e3f
000002a0: ec51 783f ae47 813f 6666 863f 1f85 8b3f
000002b0: d7a3 903f 8fc2 953f 48e1 9a3f 0ad7 233c
000002c0: cdcc 4c3d ec51 b83d b81e 053e 7b14 2e3e
000002d0: 3d0a 573e 0000 803e e17a 943e c3f5 a83e
000002e0: a470 bd3e 85eb d13e 6666 e63e 48e1 fa3e
000002f0: 14ae 073f 85eb 113f f628 1c3f 6666 263f
00000300: d7a3 303f 48e1 3a3f b81e 453f 295c 4f3f
00000310: 9a99 593f 0ad7 633f 7b14 6e3f ec51 783f
00000320: ae47 813f 6666 863f 1f85 8b3f d7a3 903f
00000330: 8fc2 953f 9a99 993f

speed f4 [206]
0.0 0.11241703 0.1766054 0.26067716 0.3961937 0.5301446 0.58369243 0.7031325
0.77334094 0.9095815 1.0276965 1.1686023 1.2184619 1.4019994 1.3977017 1.5052023
1.6045444 1.7345699 1.7614679 1.9546534 1.968785 2.0779142 2.2073226 2.246092
2.3469448 2.390827 2.4914842 2.564471 2.6084113 2.6636994 1.3610928 0.0
0.21900892 0.34876224 0.4564298 0.56652796 0.7188795 0.7776549 0.9362736 1.0038588
1.168352 1.2133476 1.2876817 1.388052 1.4668034 1.5810506 1.6746125 1.7885275
1.8333858 1.9337199 2.0073159 2.1083791 2.1453176 2.2341383 2.3354518 2.3492446
2.489611 2.5051527 2.6060421 2.6806498 2.767512 2.8337853 2.9301898 2.9285202
1.3449713 0.0 0.21098834 0.37456524 0.49444357 0.604228 0.7428651 0.8173538
0.8884766 1.0087637 1.0907393 1.2179352 1.3204045 1.3996501 1.4549466 1.494089
1.6152837 1.6318827 1.7589625 1.8092237 1.9196081 2.0135958 2.0850153 2.1665962
2.2386968 2.3488615 2.3833706 2.4721706 2.52987 2.6153753 2.635928 2.6985738
2.7324836 1.2835269 0.0 0.20468579 0.35337535 0.502871 0.6652431 0.71150327
0.84220046 0.90210927 1.0105355 1.0860294 1.1340761 1.2179871 1.2995303 1.385003
1.5137957 1.5450139 1.6692523 1.7264184 1.8393192 1.861015 1.9509331 1.990726
2.0577972 2.15011 2.2254014 2.3250349 2.4182193 2.438451 2.5731773 2.5897672
2.7073896 2.6940787 2.7427485 2.7994552 2.8465407 2.9221475 2.9651923 3.0440862
3.0754535 3.0963743 3.090591 3.1286144 3.1274 3.1466453 3.1830027 2.2969725
0.0 0.21444643 0.35654858 0.49692038 0.6313282 0.68489265 0.7452773 0.889183
0.93489 1.0359384 1.1786346 1.2570667 1.3520312 1.3626144 1.5494832 1.5704011
1.6929413 1.7993922 1.8957562 1.9905375 2.0790725 2.1046596 2.2419703 2.2647104
2.3820055 2.44286 2.4926887 2.5718496 2.6857169 2.7270124 1.3246678 0.0
0.18307878 0.33132285 0.49488786 0.56592494 0.6709444 0.7797152 0.870259 0.98429227
1.0365252 1.0991291 1.1749038 1.2831048 1.3848758 1.4754517 1.5746083 1.6722193
1.7692026 1.8381941 1.9358196 2.0194135 2.0706062 2.136734 2.2400436 2.2852933
2.384654 2.4673283 2.5290148 2.595145 2.6646426 1.4243826
00000000: 0000 0000 e63a e63d 0cd8 343e 7a77 853e
00000010: e7d9 ca3e 8eb7 073f de6c 153f 7e00 343f
00000020: acf9 453f 55da 683f 8f8b 833f c394 953f
00000030: 8ff6 9b3f b774 b33f e4e7 b23f 78aa c03f
00000040: b661 cd3f 6306 de3f c877 e13f 1532 fa3f
00000050: 2601 fc3f 8cfc 0440 c644 0d40 f9bf 0f40
00000060: 5834 1640 4f03 1940 7a74 1f40 4b20 2440
00000070: 36f0 2640 0d7a 2a40 4a38 ae3f 0000 0000
00000080: e043 603e f790 b23e 2bb1 e93e fa07 113f
00000090: 7d08 383f 6414 473f a0af 6f3f 727e 803f
000000a0: 8f8c 953f f94e 9b3f c1d2 a43f b0ab b13f
000000b0: 37c0 bb3f de5f ca3f b459 d63f 78ee e43f
000000c0: 63ac ea3f 2284 f73f dd77 0040 afef 0640
000000d0: e24c 0940 1ffc 0e40 0b78 1540 065a 1640
000000e0: c955 1f40 6c54 2040 65c9 2640 c48f 2b40
000000f0: eb1e 3140 bd5c 3540 3b88 3b40 e06c 3b40
00000100: 0528 ac3f 0000 0000 540d 583e 04c7 bf3e
00000110: b527 fd3e b0ae 1a3f 682c 3e3f 193e 513f
00000120: 3473 633f 2b1f 813f 589d 8b3f 4de5 9b3f
00000130: 0403 a93f bc27 b33f b13b ba3f 4f3e bf3f
00000140: 9ec1 ce3f 88e1 d03f af25 e13f a494 e73f
00000150: b8b5 f53f c1de 0040 e470 0540 83a9 0a40
00000160: cf46 0f40 bf53 1640 2589 1840 0b38 1e40
00000170: 64e9 2140 4f62 2740 0bb3 2840 6fb5 2c40
00000180: 03e1 2e40 9c4a a43f 0000 0000 2799 513e
00000190: 9ded b43e 27bc 003f 5f4d 2a3f 1425 363f
000001a0: 739a 573f a2f0 663f 3a59 813f 0303 8b3f
000001b0: 6829 913f 00e7 9b3f 0257 a63f c747 b13f
000001c0: 0fc4 c13f 04c3 c53f 0faa d53f 47fb dc3f
000001d0: d06e eb3f bd35 ee3f 2db8 f93f 1cd0 fe3f
000001e0: f3b2 0340 679b 0940 fa6c 0e40 5fcd 1440
000001f0: 1bc4 1a40 950f 1c40 f0ae 2440 bfbe 2540
00000200: df45 2d40 c96b 2c40 3189 2f40 462a 3340
00000210: b92d 3640 7704 3b40 b6c5 3d40 4fd2 4240
00000220: 3bd4 4440 ff2a 4640 3ecc 4540 383b 4840
00000230: 5227 4840 a362 4940 51b6 4b40 9901 1340
00000240: 0000 0000 d897 5b3e 898d b63e 596c fe3e
00000250: ba9e 213f 2055 2f3f 7eca 3e3f 7fa1 633f
00000260: f354 6f3f a199 843f 80dd 963f 90e7 a03f
00000270: 5c0f ad3f 266a ae3f 7755 c63f e702 c93f
00000280: 4db2 d83f 7c52 e63f 24a8 f23f efc9 fe3f
00000290: 860f 0540 beb2 0640 717c 0f40 04f1 1040
000002a0: c772 1840 d157 1c40 3688 1f40 2f99 2440
000002b0: c9e2 2b40 5f87 2e40 b78e a93f 0000 0000
000002c0: 0179 3b3e 26a3 a93e f161 fd3e 75e0 103f
000002d0: 03c3 2b3f 6a9b 473f 4bc9 5e3f 94fa 7b3f
000002e0: dcac 843f 43b0 8c3f 3f63 963f c73c a43f
000002f0: 9c43 b13f 9adb bc3f c48c c93f 480b d63f
00000300: 3b75 e23f f249 eb3f f0c8 f73f 123e 0140
00000310: d084 0440 40c0 0840 e05c 0f40 3f42 1240
00000320: 2c9e 1840 b5e8 1d40 61db 2140 db16 2640
00000330: 8189 2a40 2b52 b63f

reward f4 [206]
0.0 0.0 0.0 0.0 0.0 0.0 0.06293266 0.0
0.06293266 0.0 0.06293266 0.06293266 0.06293266 0.0 0.06293266 0.06293266
0.06293266 0.06293266 0.06293266 0.12586533 0.06293266 0.06293266 0.06293266 0.12586533
0.06293266 0.12586533 0.06293266 0.12586533 0.06293266 0.12586533 -0.93706733 0.0
0.0 0.0 0.0 0.06293266 0.0 0.06293266 0.06293266 0.0
0.06293266 0.06293266 0.06293266 0.06293266 0.06293266 0.06293266 0.12586533 0.06293266
0.06293266 0.12586533 0.06293266 0.06293266 0.12586533 0.06293266 0.12586533 0.06293266
0.12586533 0.06293266 0.12586533 0.06293266 0.12586533 0.12586533 0.12586533 0.06293266
-0.93706733 0.0 0.0 0.0 0.0 0.06293266 0.0 0.06293266
0.0 0.06293266 0.06293266 0.06293266 0.06293266 0.06293266 0.06293266 0.06293266
0.06293266 0.06293266 0.06293266 0.12586533 0.06293266 0.06293266 0.12586533 0.06293266
0.12586533 0.06293266 0.12586533 0.06293266 0.12586533 0.06293266 0.12586533 0.12586533
0.06293266 -1.0 0.0 0.0 0.0 0.0 0.06293266 0.0
0.06293266 0.06293266 0.0 0.06293266 0.06293266 0.06293266 0.06293266 0.06293266
0.06293266 0.06293266 0.12586533 0.06293266 0.12586533 0.06293266 0.06293266 0.12586533
0.12586533 0.06293266 0.12586533 0.12586533 0.06293266 0.12586533 0.12586533 0.12586533
0.12586533 0.12586533 0.12586533 0.12586533 0.12586533 0.12586533 0.18879798 0.12586533
0.12586533 0.18879798 0.12586533 0.12586533 0.18879798 0.12586533 0.12586533 -0.87413466
0.0 0.0 0.0 0.0 0.06293266 0.0 0.06293266 0.0
0.06293266 0.06293266 0.06293266 0.0 0.06293266 0.06293266 0.06293266 0.12586533
0.06293266 0.06293266 0.06293266 0.12586533 0.06293266 0.06293266 0.12586533 0.06293266
0.06293266 0.12586533 0.06293266 0.12586533 0.06293266 0.12586533 -0.93706733 0.0
0.0 0.0 0.0 0.06293266 0.0 0.06293266 0.0 0.06293266
0.06293266 0.0 0.06293266 0.06293266 0.06293266 0.06293266 0.06293266 0.06293266
0.06293266 0.06293266 0.06293266 0.12586533 0.06293266 0.06293266 0.12586533 0.06293266
0.06293266 0.12586533 0.06293266 0.12586533 0.06293266 -0.93706733
00000000: 0000 0000 0000 0000 0000 0000 0000 0000
00000010: 0000 0000 0000 0000 d7e2 803d 0000 0000
00000020: d7e2 803d 0000 0000 d7e2 803d d7e2 803d
00000030: d7e2 803d 0000 0000 d7e2 803d d7e2 803d
00000040: d7e2 803d d7e2 803d d7e2 803d d7e2 003e
00000050: d7e2 803d d7e2 803d d7e2 803d d7e2 003e
00000060: d7e2 803d d7e2 003e d7e2 803d d7e2 003e
00000070: d7e2 803d d7e2 003e a5e3 6fbf 0000 0000
00000080: 0000 0000 0000 0000 0000 0000 d7e2 803d
00000090: 0000 0000 d7e2 803d d7e2 803d 0000 0000
000000a0: d7e2 803d d7e2 803d d7e2 803d d7e2 803d
000000b0: d7e2 803d d7e2 803d d7e2 003e d7e2 803d
000000c0: d7e2 803d d7e2 003e d7e2 803d d7e2 803d
000000d0: d7e2 003e d7e2 803d d7e2 003e d7e2 803d
000000e0: d7e2 003e d7e2 803d d7e2 003e d7e2 803d
000000f0: d7e2 003e d7e2 003e d7e2 003e d7e2 803d
00000100: a5e3 6fbf 0000 0000 0000 0000 0000 0000
00000110: 0000 0000 d7e2 803d 0000 0000 d7e2 803d
00000120: 0000 0000 d7e2 803d d7e2 803d d7e2 803d
00000130: d7e2 803d d7e2 803d d7e2 803d d7e2 803d
00000140: d7e2 803d d7e2 803d d7e2 803d d7e2 003e
00000150: d7e2 803d d7e2 803d d7e2 003e d7e2 803d
00000160: d7e2 003e d7e2 803d d7e2 003e d7e2 803d
00000170: d7e2 003e d7e2 803d d7e2 003e d7e2 003e
00000180: d7e2 803d 0000 80bf 0000 0000 0000 0000
00000190: 0000 0000 0000 0000 d7e2 803d 0000 0000
000001a0: d7e2 803d d7e2 803d 0000 0000 d7e2 803d
000001b0: d7e2 803d d7e2 803d d7e2 803d d7e2 803d
000001c0: d7e2 803d d7e2 803d d7e2 003e d7e2 803d
000001d0: d7e2 003e d7e2 803d d7e2 803d d7e2 003e
000001e0: d7e2 003e d7e2 803d d7e2 003e d7e2 003e
000001f0: d7e2 803d d7e2 003e d7e2 003e d7e2 003e
00000200: d7e2 003e d7e2 003e d7e2 003e d7e2 003e
00000210: d7e2 003e d7e2 003e 4254 413e d7e2 003e
00000220: d7e2 003e 4254 413e d7e2 003e d7e2 003e
00000230: 4254 413e d7e2 003e d7e2 003e 4ac7 5fbf
00000240: 0000 0000 0000 0000 0000 0000 0000 0000
00000250: d7e2 803d 0000 0000 d7e2 803d 0000 0000
00000260: d7e2 803d d7e2 803d d7e2 803d 0000 0000
00000270: d7e2 803d d7e2 803d d7e2 803d d7e2 003e
00000280: d7e2 803d d7e2 803d d7e2 803d d7e2 003e
00000290: d7e2 803d d7e2 803d d7e2 003e d7e2 803d
000002a0: d7e2 803d d7e2 003e d7e2 803d d7e2 003e
000002b0: d7e2 803d d7e2 003e a5e3 6fbf 0000 0000
000002c0: 0000 0000 0000 0000 0000 0000 d7e2 803d
000002d0: 0000 0000 d7e2 803d 0000 0000 d7e2 803d
000002e0: d7e2 803d 0000 0000 d7e2 803d d7e2 803d
000002f0: d7e2 803d d7e2 803d d7e2 803d d7e2 803d
00000300: d7e2 803d d7e2 803d d7e2 803d d7e2 003e
00000310: d7e2 803d d7e2 803d d7e2 003e d7e2 803d
00000320: d7e2 803d d7e2 003e d7e2 803d d7e2 003e
00000330: d7e2 803d a5e3 6fbf

discount f4 [206]
1.0 1.0 1.0 1.0 1.0 1.0 1.0 1.0
1.0 1.0 1.0 1.0 1.0 1.0 1.0 1.0
1.0 1.0 1.0 1.0 1.0 1.0 1.0 1.0
1.0 1.0 1.0 1.0 1.0 1.0 0.0 1.0
1.0 1.0 1.0 1.0 1.0 1.0 1.0 1.0
1.0 1.0 1.0 1.0 1.0 1.0 1.0 1.0
1.0 1.0 1.0 1.0 1.0 1.0 1.0 1.0
1.0 1.0 1.0 1.0 1.0 1.0 1.0 1.0
0.0 1.0 1.0 1.0 1.0 1.0 1.0 1.0
1.0 1.0 1.0 1.0 1.0 1.0 1.0 1.0
1.0 1.0 1.0 1.0 1.0 1.0 1.0 1.0
1.0 1.0 1.0 1.0 1.0 1.0 1.0 1.0
1.0 0.0 1.0 1.0 1.0 1.0 1.0 1.0
1.0 1.0 1.0 1.0 1.0 1.0 1.0 1.0
1.0 1.0 1.0 1.0 1.0 1.0 1.0 1.0
1.0 1.0 1.0 1.0 1.0 1.0 1.0 1.0
1.0 1.0 1.0 1.0 1.0 1.0 1.0 1.0
1.0 1.0 1.0 1.0 1.0 1.0 1.0 0.0
1.0 1.0 1.0 1.0 1.0 1.0 1.0 1.0
1.0 1.0 1.0 1.0 1.0 1.0 1.0 1.0
1.0 1.0 1.0 1.0 1.0 1.0 1.0 1.0
1.0 1.0 1.0 1.0 1.0 1.0 0.0 1.0
1.0 1.0 1.0 1.0 1.0 1.0 1.0 1.0
1.0 1.0 1.0 1.0 1.0 1.0 1.0 1.0
1.0 1.0 1.0 1.0 1.0 1.0 1.0 1.0
1.0 1.0 1.0 1.0 1.0 0.0
00000000: 0000 803f 0000 803f 0000 803f 0000 803f
00000010: 0000 803f 0000 803f 0000 803f 0000 803f
00000020: 0000 803f 0000 803f 0000 803f 0000 803f
00000030: 0000 803f 0000 803f 0000 803f 0000 803f
00000040: 0000 803f 0000 803f 0000 803f 0000 803f
00000050: 0000 803f 0000 803f 0000 803f 0000 803f
00000060: 0000 803f 0000 803f 0000 803f 0000 803f
00000070: 0000 803f 0000 803f 0000 0000 0000 803f
00000080: 0000 803f 0000 803f 0000 803f 0000 803f
00000090: 0000 803f 0000 803f 0000 803f 0000 803f
000000a0: 0000 803f 0000 803f 0000 803f 0000 803f
000000b0: 0000 803f 0000 803f 0000 803f 0000 803f
000000c0: 0000 803f 0000 803f 0000 803f 0000 803f
000000d0: 0000 803f 0000 803f 0000 803f 0000 803f
000000e0: 0000 803f 0000 803f 0000 803f 0000 803f
000000f0: 0000 803f 0000 803f 0000 803f 0000 803f
00000100: 0000 0000 0000 803f 0000 803f 0000 803f
00000110: 0000 803f 0000 803f 0000 803f 0000 803f
00000120: 0000 803f 0000 803f 0000 803f 0000 803f
00000130: 0000 803f 0000 803f 0000 803f 0000 803f
00000140: 0000 803f 0000 803f 0000 803f 0000 803f
00000150: 0000 803f 0000 803f 0000 803f 0000 803f
00000160: 0000 803f 0000 803f 0000 803f 0000 803f
00000170: 0000 803f 0000 803f 0000 803f 0000 803f
00000180: 0000 803f 0000 0000 0000 803f 0000 803f
00000190: 0000 803f 0000 803f 0000 803f 0000 803f
000001a0: 0000 803f 0000 803f 0000 803f 0000 803f
000001b0: 0000 803f 0000 803f 0000 803f 0000 803f
000001c0: 0000 803f 0000 803f 0000 803f 0000 803f
000001d0: 0000 803f 0000 803f 0000 803f 0000 803f
000001e0: 0000 803f 0000 803f 0000 803f 0000 803f
000001f0: 0000 803f 0000 803f 0000 803f 0000 803f
00000200: 0000 803f 0000 803f 0000 803f 0000 803f
00000210: 0000 803f 0000 803f 0000 803f 0000 803f
00000220: 0000 803f 0000 803f 0000 803f 0000 803f
00000230: 0000 803f 0000 803f 0000 803f 0000 0000
00000240: 0000 803f 0000 803f 0000 803f 0000 803f
00000250: 0000 803f 0000 803f 0000 803f 0000 803f
00000260: 0000 803f 0000 803f 0000 803f 0000 803f
00000270: 0000 803f 0000 803f 0000 803f 0000 803f
00000280: 0000 803f 0000 803f 0000 803f 0000 803f
00000290: 0000 803f 0000 803f 0000 803f 0000 803f
000002a0: 0000 803f 0000 803f 0000 803f 0000 803f
000002b0: 0000 803f 0000 803f 0000 0000 0000 803f
000002c0: 0000 803f 0000 803f 0000 803f 0000 803f
000002d0: 0000 803f 0000 803f 0000 803f 0000 803f
000002e0: 0000 803f 0000 803f 0000 803f 0000 803f
000002f0: 0000 803f 0000 803f 0000 803f 0000 803f
00000300: 0000 803f 0000 803f 0000 803f 0000 803f
00000310: 0000 803f 0000 803f 0000 803f 0000 803f
00000320: 0000 803f 0000 803f 0000 803f 0000 803f
00000330: 0000 803f 0000 0000

action f4 [201, 2]
0.0 0.0 0.5495828 0.33183947 0.08785735 0.87437636 -0.5916328 0.7575796
0.36059025 0.7271209 0.4127658 0.6803145 0.96024024 0.67587364 -0.6078198 0.7824498
0.47118145 0.4210619 0.40399158 0.6898488 0.21671283 0.41886926 -0.57714576 0.48021355
0.63722456 0.6154385 0.84934705 0.40310887 -0.13592336 0.21515524 -0.2434724 0.49964073
0.67262983 -0.6359132 0.66314554 -0.66002214 0.54378015 -0.71258336 0.48972768 0.74904597
0.004901668 0.67539686 0.63221526 0.2160267 0.7831636 0.60508096 0.2550123 -0.13662972
-0.075338304 0.4489594 -0.2676974 -0.52758175 0.68830985 -0.491974 -0.18316983 -0.20364954
0.31386322 -0.7620704 -0.394387 -0.4603954 0.32189113 -0.46731997 0.6329994 0.68854994
-0.853936 0.63890487 -0.6414214 0.4912863 0.7369399 0.12395059 0.54513717 0.42532706
0.5450567 -0.24032333 0.5009166 0.41352263 0.7929686 0.046998125 0.23110963 0.040421177
0.647811 0.8061136 0.50184494 0.4537949 0.8424955 0.80054617 0.6867559 -0.057302307
0.9074338 0.83434296 0.5650664 0.7936964 -0.010378569 0.7074703 0.45229328 0.9663787
-0.18582676 0.46872053 -0.36867335 0.9420162 0.54864526 0.3644166 0.51640105 -0.2133466
0.37619436 0.618872 0.54295343 0.7128207 0.48903325 0.44535455 0.4885968 -0.14737518
0.5918077 0.48595 0.34683657 -0.3151649 0.58700323 -0.03539966 0.71193683 -0.6878569
0.88629884 0.45507511 0.83193505 0.7372973 -0.44971207 -0.5082609 0.26525858 0.12511322
0.7574968 0.693791 0.20202392 0.039995424 0.06300767 0.46164945 -0.62463325 0.9762533
0.6711956 0.984045 0.609584 0.8798534 0.31877434 0.9697309 -0.42365605 0.6567525
0.71768594 0.63671374 0.73069185 0.71568096 -0.10368595 -0.6790561 -0.1066489 0.10571461
0.18254629 -0.51635724 0.19428027 -0.4282666 0.0906841 -0.03360445 -0.87897855 0.47972298
-0.49365726 0.94396865 0.63344395 0.61191213 -0.046083212 -0.0476953 -0.6696772 -0.5864287
-0.5543372 -0.08294004 0.46543345 0.61884487 0.3375104 0.1770622 0.32032752 0.7787694
0.6490338 0.693682 -0.56061524 0.77804846 0.2797426 -0.2223475 0.4758026 0.81207216
0.7407115 0.7373892 0.5521649 0.4093147 0.45420584 -0.76823145 0.4880779 0.5385541
-0.14631231 -0.41537505 0.8249081 0.6986543 0.4393086 0.8753598 0.49582878 -0.08824172
-0.6300236 -0.3147294 0.45987543 -0.6551682 -0.44773412 -0.46443936 -0.04135121 0.42851365
-0.70892924 0.17197876 -0.3857324 -0.46421555 0.4887527 0.14103419 0.57947284 -0.7973892
0.4625961 0.37093714 -0.44482997 -0.7859927 0.7604607 -0.2660401 0.100359246 -0.622648
-0.51620597 0.40132818 0.9098843 0.5015679 -0.5389568 0.2736561 -0.38571513 0.37901136
-0.14613207 -0.07894935 0.24030368 0.3773152 0.85747105 0.6060103 0.64619076 0.8916917
0.7984138 0.3408371 0.85289675 -0.123758174 0.7231678 0.79574263 0.9307135 -0.75008625
0.6165035 -0.5556848 0.5479789 -0.47674966 -0.2978637 -0.15767345 0.4032602 0.1257287
00000000: 0000 0000 0000 0000 75b1 0c3f dde6 a93e
00000010: 8eee b33d 21d7 5f3f 3f75 17bf bdf0 413f
00000020: 499f b83e 9824 3a3f 0a56 d33e 1729 2e3f
00000030: 4ed2 753f 0e06 2d3f 149a 1bbf a14e 483f
00000040: b23e f13e 6d95 d73e fcd7 ce3e ee99 303f
00000050: f8e9 5d3e 0876 d63e d3bf 13bf 8dde f53e
00000060: 2621 233f 618d 1d3f cf6e 593f 4964 ce3e
00000070: 7e2f 0bbe a851 5c3e d450 79be e9d0 ff3e
00000080: 7831 2c3f 35cb 22bf e8c3 293f 36f7 28bf
00000090: 2d35 0b3f dd6b 36bf 96bd fa3e 7ac1 3f3f
000000a0: 2c9e a03b cfe6 2c3f dcd8 213f 1a36 5d3e
000000b0: 697d 483f 96e6 1a3f f990 823e a9e8 0bbe
000000c0: f84a 9abd 02de e53e a20f 89be 990f 07bf
000000d0: 1335 303f 04e4 fbbe df90 3bbe 8189 50be
000000e0: aeb2 a03e 0c17 43bf 18ed c9be f2b8 ebbe
000000f0: eace a43e 9044 efbe 400c 223f cf44 303f
00000100: 8d9b 5abf 458f 233f 3134 24bf e189 fb3e
00000110: 18a8 3c3f cfd9 fd3d 1c8e 0b3f 78c4 d93e
00000120: d688 0b3f 5217 76be 123c 003f 3db9 d33e
00000130: fdff 4a3f 1b81 403d 01a8 6c3e ad90 253d
00000140: f1d6 253f 765d 4e3f e978 003f ce57 e83e
00000150: c9ad 573f 98f0 4c3f 3ccf 2f3f d3b5 6abd
00000160: 954d 683f 8097 553f 31a8 103f b02f 4b3f
00000170: e00a 2abc c61c 353f fc92 e73e 9864 773f
00000180: 5f49 3ebe 23fc ef3e c1c2 bcbe f927 713f
00000190: 0474 0c3f d094 ba3e dc32 043f 8877 5abe
000001a0: 8c9c c03e 656e 1e3f fffe 0a3f 6b7b 363f
000001b0: 9162 fa3e 8305 e43e 5c29 fa3e 85e9 16be
000001c0: b680 173f 70ce f83e 9094 b13e 4b5d a1be
000001d0: d845 163f 3cff 10bd 7e41 363f 6417 30bf
000001e0: 7be4 623f 9bff e83e b2f9 543f 84bf 3c3f
000001f0: a940 e6be 631d 02bf f9cf 873e ae1d 003e
00000200: 4feb 413f 499c 313f 5cdf 4e3e 3ed2 233d
00000210: 2a0a 813d 515d ec3e f7e7 1fbf bceb 793f
00000220: 7ad3 2b3f 60ea 7b3f b20d 1c3f 133e 613f
00000230: 6436 a33e 4940 783f 72e9 d8be ef20 283f
00000240: 44ba 373f acff 223f 9f0e 3b3f de36 373f
00000250: 4d59 d4bd 9fd6 2dbf bd6a dabd e780 d83d
00000260: 6aed 3a3e fd2f 04bf 68f1 463e c345 dbbe
00000270: 96b8 b93d d2a4 09bd bd04 61bf 409e f53e
00000280: a5c0 fcbe eea7 713f 6229 223f 46a6 1c3f
00000290: c0c1 3cbd 265c 43bd f76f 2bbf 3120 16bf
000002a0: 0be9 0dbf 78dc a9bd 4b4d ee3e 9e6c 1e3f
000002b0: 2ace ac3e cb4f 353e f801 a43e 6e5d 473f
000002c0: 1427 263f 2595 313f 7b84 0fbf 2f2e 473f
000002d0: 6c3a 8f3e 10af 63be 669c f33e f6e3 4f3f
000002e0: 459f 3d3f 8ac5 3c3f ae5a 0d3f b291 d13e
000002f0: ab8d e83e d1aa 44bf 59e5 f93e aede 093f
00000300: e5d2 15be 0aac d4be 2d2d 533f 02db 323f
00000310: 0fed e03e 9417 603f 45dd fd3e 13b8 b4bd
00000320: 3a49 21bf 3624 a1be cb74 eb3e 1ab9 27bf
00000330: 683d e5be ffca edbe e35f 29bd 2466 db3e
00000340: 637c 35bf 331b 303e b87e c5be a9ad edbe
00000350: cb3d fa3e 446b 103e 5558 143f b321 4cbf
00000360: 65d9 ec3e 79eb bd3e c1c0 e3be d136 49bf
00000370: 8dad 423f 6836 88be 2689 cd3d dc65 1fbf
00000380: 1326 04bf e37a cd3e 2dee 683f c166 003f
00000390: 13f9 09bf a71c 8c3e 747c c5be c70d c23e
000003a0: a5a3 15be 32b0 a1bd 2b12 763e 752f c13e
000003b0: 3983 5b3f 7e23 1b3f c26c 253f e845 643f
000003c0: d964 4c3f 3382 ae3e 7157 5a3f ed74 fdbd
000003d0: 8621 393f cab5 4b3f 3d43 6e3f a705 40bf
000003e0: 2cd3 1d3f 5c41 0ebf 5848 0c3f 8818 f4be
000003f0: 9781 98be 2675 21be 1f78 ce3e 06bf 003e

logprob f4 [201]
-0.0 -1.1590244 -1.2979281 -0.9309474 -1.216471 -1.3052007 -1.5295339 -1.4828959
-1.5289122 -1.3503253 -1.537513 -1.4731925 -1.6128001 -1.5428696 -1.4849727 -1.3546987
-1.1931701 -1.5131005 -1.469791 -1.5531986 -1.626342 -1.5744964 -1.3773029 -1.4479544
-1.5238014 -1.638086 -1.4784075 -1.5869445 -1.30046 -1.2499864 -1.5083532 -1.4633665
-1.564157 -1.5223458 -1.4708033 -1.67185 -1.5140477 -1.1335208 -1.5834328 -1.5720128
-1.4445319 -1.528989 -1.5409544 -1.4479872 -1.5827644 -1.50457 -1.5593979 -1.7396418
-1.5718555 -1.4479387 -1.5004123 -1.2576325 -1.4239397 -1.5366609 -1.4095123 -1.6088604
-1.5599115 -1.5071368 -1.5712522 -1.4836235 -1.4931083 -1.6001034 -1.5744277 -1.6434953
-1.4784372 -1.1532538 -1.5620365 -1.2949101 -1.4501269 -1.504079 -1.1898706 -1.4221084
-1.4979678 -1.5222747 -1.4689951 -1.713491 -1.4540284 -1.574463 -1.4314978 -1.3478885
-1.5492023 -1.5648912 -1.4083648 -1.3887912 -1.0551763 -1.3053496 -1.6218055 -1.5139618
-1.6439219 -1.408097 -1.0143325 -1.5582596 -1.5299511 -1.6099901 -1.694082 -1.4330455
-1.3071971 -1.4645723 -1.4412706 -1.6336389 -1.7120532 -1.5472654 -1.6098083 -1.4878987
-1.5904517 -1.6018955 -1.5574312 -1.3621457 -1.5125897 -1.6500529 -1.1912454 -1.4169896
-1.4858153 -1.2855316 -1.5338271 -1.5607442 -1.5868828 -1.4634362 -1.6088347 -1.0495428
-1.2360227 -1.5387008 -1.1938145 -1.4822941 -1.1497154 -1.2725145 -1.5138278 -1.5006094
-1.5729458 -1.3820059 -1.2438643 -1.4903951 -1.5455362 -1.5042768 -1.604774 -1.5171192
-1.1523964 -1.5137613 -1.5205119 -1.6129878 -1.6463528 -1.2851045 -1.5241721 -1.433034
-1.2322345 -1.4379913 -1.7016602 -1.5822858 -1.6359202 -1.6617241 -1.6395466 -1.6771346
-1.2322195 -1.6246479 -1.5469053 -1.6679899 -1.685941 -1.7121651 -1.4198873 -1.5260317
-1.522984 -1.4908051 -1.1007099 -1.2486743 -0.9070849 -1.4321835 -1.4387062 -1.4599093
-1.0582566 -1.443825 -1.4380565 -1.4894919 -1.5482228 -1.4636939 -1.2230332 -1.4659348
-1.402982 -1.4228451 -1.5001944 -1.4440911 -1.3560264 -1.4713438 -1.0928091 -1.4978782
-1.2494051 -1.3989985 -1.5812047 -1.5828772 -1.2788337 -1.5449545 -1.2112017 -1.522893
-1.5749172 -1.5214832 -1.2272494 -1.5033708 -1.3931807 -1.6141295 -1.6273549 -1.4711266
-1.505789
00000000: 0000 0080 e95a 94bf 8222 a6bf 9252 6ebf
00000010: 52b5 9bbf d110 a7bf c4c7 c3bf 88cf bdbf
00000020: 65b3 c3bf 76d7 acbf 3acd c4bf 9291 bcbf
00000030: 3c70 cebf c07c c5bf 9613 bebf c466 adbf
00000040: ccb9 98bf 47ad c1bf 1d22 bcbf 36cf c6bf
00000050: fa2b d0bf 1989 c9bf 764b b0bf 9256 b9bf
00000060: ed0b c3bf cdac d1bf 753c bdbf ff20 cbbf
00000070: 7975 a6bf 8eff 9fbf b811 c1bf 984f bbbf
00000080: 4c36 c8bf 3adc c2bf 4843 bcbf 2eff d5bf
00000090: 51cc c1bf 3617 91bf edad cabf b737 c9bf
000000a0: 6ce6 b8bf e9b5 c3bf fe3d c5bf a557 b9bf
000000b0: 0698 cabf c095 c0bf 5a9a c7bf 95ac debf
000000c0: 9032 c9bf 0e56 b9bf 830d c0bf 1afa a0bf
000000d0: a843 b6bf 4eb1 c4bf e66a b4bf 23ef cdbf
000000e0: 2eab c7bf dce9 c0bf cb1e c9bf 60e7 bdbf
000000f0: 2c1e bfbf 30d0 ccbf d986 c9bf 0e5e d2bf
00000100: 6e3d bdbf d29d 93bf d0f0 c7bf 9dbf a5bf
00000110: c29d b9bf a985 c0bf ae4d 98bf a607 b6bf
00000120: 69bd bfbf e6d9 c2bf 0808 bcbf ac53 dbbf
00000130: 9a1d babf 0188 c9bf 523b b7bf 9c87 acbf
00000140: 434c c6bf 5b4e c8bf 4c45 b4bf e9c3 b1bf
00000150: 0410 87bf b215 a7bf 5397 cfbf 80c9 c1bf
00000160: 086c d2bf 863c b4bf a6d5 81bf 0d75 c7bf
00000170: 70d5 c3bf 2814 cebf aed7 d8bf 096e b7bf
00000180: 3c52 a7bf 1b77 bbbf 8e7b b8bf 141b d1bf
00000190: 8f24 dbbf cb0c c6bf 330e cebf 7773 bebf
000001a0: ec93 cbbf e90a cdbf e859 c7bf ca5a aebf
000001b0: 8a9c c1bf ef34 d3bf bb7a 98bf ea5f b5bf
000001c0: 322f bebf 4d8c a4bf 7254 c4bf 77c6 c7bf
000001d0: fa1e cbbf e151 bbbf 4cee cdbf 6b57 86bf
000001e0: fe35 9ebf 26f4 c4bf eace 98bf d0bb bdbf
000001f0: e029 93bf c1e1 a2bf 1cc5 c1bf f813 c0bf
00000200: 4a56 c9bf 92e5 b0bf f236 9fbf 44c5 bebf
00000210: 21d4 c5bf 248c c0bf 3c69 cdbf f630 c2bf
00000220: ba81 93bf eec2 c1bf 22a0 c2bf 6276 cebf
00000230: b0bb d2bf 4e7e a4bf 1218 c3bf a86d b7bf
00000240: dcb9 9dbf 1910 b8bf 00d0 d9bf 5788 cabf
00000250: d565 d1bf 60b3 d4bf aadc d1bf 59ac d6bf
00000260: 5eb9 9dbf 76f4 cfbf fe00 c6bf b180 d5bf
00000270: eacc d7bf 3a28 dbbf debe b5bf 0255 c3bf
00000280: 24f1 c2bf b4d2 bebf 10e4 8cbf 8fd4 9fbf
00000290: b736 68bf ca51 b7bf 8627 b8bf 4fde babf
000002a0: f474 87bf 42cf b8bf 3c12 b8bf aca7 bebf
000002b0: 2a2c c6bf 525a bbbf 5a8c 9cbf c0a3 bbbf
000002c0: ea94 b3bf ca1f b6bf 5f06 c0bf fad7 b8bf
000002d0: 4692 adbf fe54 bcbf 2be1 8bbf 79ba bfbf
000002e0: 82ec 9fbf 6212 b3bf ea64 cabf b89b cabf
000002f0: d3b0 a3bf 12c1 c5bf a808 9bbf 28ee c2bf
00000300: e396 c9bf f6bf c2bf 8216 9dbf 746e c0bf
00000310: bf53 b2bf cc9b cebf 2a4d d0bf e04d bcbf
00000320: b2bd c0bf
